src/twolayer/rbm.hid--top.bias_h.npy (npy, 4128 bytes, 1 tensors)

array f8 [500]
000000 8e 3a 22 86 29 36 d0 3f 34 d1 98 bc 88 e3 c4 3f
       0.25330579852099155 0.1631937905200488
000010 5d 51 a2 39 1d ea d5 3f 7f 65 a7 44 3d 9d d9 3f
       0.3424141943771895 0.4002221270034951
000020 3d 4f b1 6a 86 57 d5 3f 4f 85 f9 2c 3d 2e bb 3f
       0.3334671060485908 0.10617430065169241
000030 07 22 d5 9e c5 14 73 3f 33 2a a1 44 29 54 9b bf
       0.004658481554834732 -0.026688237012687032
000040 19 d5 19 20 65 8e c5 bf 69 0f e1 16 ef a9 dd 3f
       -0.1684080511801447 0.46349694475451614
000050 f0 33 16 cb b8 0a d1 3f e7 04 46 e7 54 40 b6 bf
       0.26627940972031094 -0.08691912313772186
000060 56 30 2d 0a 24 c1 b5 3f 66 9f 84 9b f7 3c d0 bf
       0.08497834442567984 -0.25372114360151554
000070 c2 81 bb bc 4b 26 d2 3f fc be 1f ea 08 d6 d6 bf
       0.28358739310172265 -0.35681364883110667
000080 f3 21 db a2 72 7d b8 3f 0d 12 96 76 43 4a d4 3f
       0.09566418148018112 0.31703268604931695
000090 b6 7d 6a cd 74 b9 b8 3f 11 1e 81 79 c3 30 d8 3f
       0.09657983794249145 0.37797629228268287
0000a0 3c b6 7f 61 05 65 d5 3f 83 11 f7 7b 24 3f d3 3f
       0.33429083367704826 0.30072891336410396
0000b0 16 c6 d0 00 a7 28 90 bf 01 38 20 1f 83 e4 b8 bf
       -0.015780076432014033 -0.09723681936176833
0000c0 0a c7 d4 4d 9b 6b d5 3f 17 be 4a 81 dc 5a d0 3f
       0.334692789084429 0.25554573656242624
0000d0 23 1f cc c3 81 9e de bf a0 04 d2 55 d1 b3 cc 3f
       -0.4784244930346963 0.22423760118912117
0000e0 ef fd 2b 85 88 db cc 3f ed 28 26 a3 0e 9f b0 3f
       0.22544962408572597 0.06492701991206547
0000f0 28 ee 93 68 15 34 b0 bf f2 4f eb 4d 20 74 d2 3f
       -0.06329473307771905 0.2883377800874306
000100 ca f9 06 93 63 6d cb 3f b6 2b a4 eb 5e a7 d4 bf
       0.21427578620018856 -0.3227155018982403
000110 61 4e 90 36 3b 95 c7 3f eb f0 d5 2d fa 41 b3 bf
       0.1842416778969094 -0.0752254831222136
000120 f2 34 0c 84 d5 17 d7 3f 40 9f 5d 73 86 19 c4 bf
       0.3608297147300866 -0.1570289672192704
000130 d5 62 2c fa f7 0f c3 3f f8 f4 a6 e5 82 64 c8 bf
       0.14892482486245365 -0.19056736196026924
000140 c8 e3 00 8c d8 68 81 bf 4d 6e e7 fb a6 ad ae bf
       -0.008500758907858855 -0.05991861176491096
000150 05 9b fa 01 8c 37 cc bf 83 6f 3b af 2e bb de 3f
       -0.22044515701892223 0.48017470467106466
000160 44 cc 6c eb c6 8c d1 bf 93 2b a7 d1 ff 78 d4 3f
       -0.27421734801027164 0.3198852107422507
000170 b5 29 ec 71 3a 09 e4 3f 63 70 23 7f 6c 8f d8 3f
       0.626126501564889 0.3837538949571863
000180 b5 47 b6 bf 27 e0 97 bf d1 00 b2 12 1f 4c cf 3f
       -0.023316021991895492 0.24451054013116516
000190 c5 c1 68 9d a7 43 c5 bf e0 4c 9a cc 44 bc d4 3f
       -0.1661271589851038 0.3239910123895253
0001a0 6b 72 b5 7a b9 ed d5 3f 70 61 05 2d ed 00 e8 bf
       0.34263455374983803 -0.750113094264675
0001b0 b0 d6 6a d8 32 0f c6 3f f6 44 3e 60 85 e2 dc 3f
       0.17233882491352892 0.45132574461702235
0001c0 3e 88 91 ea c7 61 e0 bf aa 77 0c a3 1f f4 d6 3f
       -0.5119361478248334 0.3586501209518881
0001d0 f9 9a f1 b8 6a 12 c4 3f 01 34 51 92 1a 44 8a 3f
       0.15681203871209684 0.012825210180517745
0001e0 fc 58 d3 54 f3 6e b2 bf 36 79 2b 4f b8 44 b2 bf
       -0.072005470475549 -0.07136108334404842
0001f0 42 23 d1 cf e8 50 cc 3f 2b 4d fc 2c b0 bb d1 3f
       0.22121915957748156 0.27708057778473244
000200 e0 c6 2c 88 7d 0b b8 bf 8f 1d 70 d7 10 1b b7 3f
       -0.09392532896597627 0.09025674113956071
000210 d9 2e 9b 23 44 15 e1 3f 18 e3 6e 7f aa 49 b3 3f
       0.533845967810943 0.07534280406151728
000220 b7 3e f9 a6 ec d7 de 3f f0 86 c1 8a 62 5b 99 3f
       0.4819289808847133 0.024762668341629046
000230 14 3e 63 47 bd 7e bb bf 1f 10 01 f3 46 60 d9 3f
       -0.10740263932097377 0.3965012906157898
000240 7d 1a 27 cf 98 91 c9 3f 67 05 92 b5 f5 4a d5 3f
       0.199755765103152 0.33270018321498757
000250 a5 d7 c9 28 06 23 b3 bf 53 ab 67 88 a2 f9 d5 3f
       -0.07475317474185646 0.3433615047530811
000260 44 d2 20 f9 35 ed d8 3f 79 44 46 43 36 1f ba bf
       0.38947820023466684 -0.10203875677531639
000270 9e 66 30 a2 2f 2a d5 bf 8e 6a 4e 93 aa f0 c9 bf
       -0.3306998332860561 -0.20265705292407116
000280 ef a5 e7 81 a7 99 b8 3f e9 0c 55 14 44 fb cb 3f
       0.09609457894807581 0.21860552780899603
000290 d8 ba 0f ea 58 bd d5 3f 81 de c5 a5 b5 cd d8 3f
       0.3396818433529183 0.387555515182136
0002a0 90 93 85 20 98 77 e1 3f 20 a7 3a 57 c0 a2 c3 bf
       0.545848907012088 -0.15340427645906463
0002b0 85 43 25 57 99 be a2 3f 11 11 b0 90 fa 94 ba 3f
       0.03661040486134141 0.10383573563018823
0002c0 32 57 7f ce b9 f1 dc 3f d8 5a d2 70 4f 51 66 3f
       0.4522537724090966 0.00272431865466714
0002d0 13 d8 46 a0 57 3c cf 3f 93 a3 cc ef 1a 93 bd 3f
       0.24402900053036145 0.11552589754559354
0002e0 cf cc d3 25 13 9c d0 3f e5 73 ca ff e1 d8 b9 3f
       0.2595260495574622 0.10096561903851826
0002f0 82 62 73 9f c0 bb d2 3f 03 ab 50 53 fd 39 ca 3f
       0.2927094990859943 0.20489470070000246
000300 fc 7f 89 18 ff b9 d8 3f b9 3c d4 f2 0c 7a df bf
       0.38635232349588455 -0.4918243762376267
000310 35 7f b6 6a 9b a2 b0 3f 31 a9 50 66 53 da b7 3f
       0.06498118739409338 0.09317513702322767
000320 70 99 c7 7c 4b 44 c9 3f f9 a5 9e 13 79 80 87 bf
       0.19739669411428507 -0.011475511466261233
000330 ea a8 8d a9 d6 b8 c8 bf 0e 1d 2a b4 6f 25 cb 3f
       -0.19314082411739913 0.21207996651740085
000340 4e b7 13 15 fa 6b d7 3f d6 b2 da 3e f0 46 dd 3f
       0.36596538599302597 0.4574547399341048
000350 77 dc 64 ff e5 70 d7 3f 1f 26 ef c2 d5 7d dd 3f
       0.36626577320880166 0.4608053592351968
000360 88 1f 77 3b 58 9a be 3f 31 3e 7d 4a 6c 11 c9 bf
       0.1195426125697151 -0.19584420811814732
000370 50 92 60 f4 16 2a c6 3f 6f 8b 05 95 a0 0a b1 bf
       0.17315947468263682 -0.06656840933059781
000380 bd a6 6c 65 42 e3 d1 3f 6f 6d da 30 ac 08 d0 3f
       0.27949581055382194 0.2505293347437236
000390 9c b9 6d e7 ee 04 bd bf 6a 97 04 97 e6 22 be 3f
       -0.11335652494537957 0.11772004305802644
0003a0 48 26 30 93 93 6d a7 3f 06 5c 54 1a 93 9f d1 3f
       0.045757877080245424 0.2753646618961628
0003b0 f1 99 4e 33 e4 7c c4 bf 31 fd 3d 6a 72 0e b4 bf
       -0.16006138329721822 -0.07834544271280632
0003c0 86 9f 35 3c 4a da d2 bf 8f b6 de 57 0c a0 b6 3f
       -0.29457336311178783 0.0883796419645597
0003d0 8e 50 60 83 d6 68 df 3f 44 ff 85 40 73 b3 d0 3f
       0.4907738001795757 0.2609527711974702
0003e0 9c 09 eb de ad 0d c2 bf 4f 0f 44 81 51 11 c8 bf
       -0.14104245552705386 -0.18802851497468473
0003f0 89 8a 7e f4 c5 74 c3 bf f5 4c 33 a4 75 29 db bf
       -0.15200113714407262 -0.42440548930353766
000400 d3 bb 3d 83 7f ea b6 3f 44 4b 05 e7 c3 03 a7 bf
       0.08951565698747226 -0.04495060153080613
000410 52 e1 e5 05 69 4b ca 3f 7f 4c 85 8d bf cc df bf
       0.20542633808123384 -0.4968718416250297
000420 46 e2 97 73 33 83 69 3f c3 60 04 fe 33 83 cf 3f
       0.0031143193161791453 0.24619150069407256
000430 33 c9 72 fc 6c a3 c8 bf ec be 3c f6 9f 88 c3 bf
       -0.19248735739308528 -0.1526069595652112
000440 ab 00 4a 1d 3f a1 c0 3f a9 91 eb 62 df 82 b1 bf
       0.129920853902154 -0.06840320744556173
000450 c7 1d 40 50 a5 a5 b4 3f ef 0d 33 ba 8d d0 b2 bf
       0.08065255364646538 -0.07349477573284678
000460 27 0b 5f 57 f4 2a b9 3f 13 a7 b2 c7 d6 03 c4 3f
       0.09831168301665781 0.1563671565139023
000470 89 36 4f 70 dd 9f b4 3f c4 36 72 2c 90 31 e0 3f
       0.08056434623650878 0.5060501926506835
000480 ff f8 87 e6 12 99 bc bf 5b 30 9a be 11 9f b5 3f
       -0.1117107212848829 0.08445845511795495
000490 28 6f b7 06 1a b7 d7 3f 28 b6 ae a3 af 90 8a 3f
       0.37055063873207184 0.01297127931851623
0004a0 3e 76 3c 4e c3 96 d4 bf f1 16 c6 54 db 53 d4 3f
       -0.3217018379235447 0.31761821058931533
0004b0 dc b8 df 9b 86 48 b6 3f f0 f9 98 2d 81 ac d7 3f
       0.08704415612712374 0.36990384533774456
0004c0 26 09 56 94 0c 47 cf 3f bb 43 c5 e4 c6 7a c3 3f
       0.24435574763271822 0.15218435450017673
0004d0 e2 1f 26 84 b2 6f d5 bf d2 37 bd dc 76 c2 d2 3f
       -0.3349424639241062 0.29311915928417165
0004e0 bb a3 0a a2 0b c0 ca 3f 67 c8 74 61 5a 4c da 3f
       0.20898576175866687 0.4109102203102623
0004f0 a8 90 c5 56 bf dc d2 bf a7 a7 a2 b9 83 76 de 3f
       -0.29472335313608733 0.47598355415777366
000500 f2 28 cf 0a 80 22 bc 3f de ca 4e dc b3 14 cd 3f
       0.10990143073937356 0.22719429261413543
000510 fe 1c 56 2f 99 76 d5 3f 94 bc 26 56 bc df d4 3f
       0.3353636705655417 0.32615574277128556
000520 e4 ee 37 ec 4b 55 cb bf 34 4d a8 44 c7 b6 b4 3f
       -0.21354054483514695 0.08091397691923846
000530 ee 90 04 39 e7 c6 a3 3f 30 02 f9 d4 9a 3d 7c bf
       0.03862688609140884 -0.00689468842716727
000540 97 af 4c ae c6 13 c6 3f 5f a2 e5 cf 2d 53 a7 3f
       0.17247851858826088 0.04555648005299839
000550 d2 ab dd 34 16 08 a3 bf 7e bf e9 c2 2b 99 d1 3f
       -0.03717107196174364 0.2749738124321012
000560 bc e0 78 53 8f f0 c1 3f cd 33 ec fd 9a 27 a9 3f
       0.14015380454816817 0.04913029050485527
000570 06 0d c6 04 89 4b 40 3f f4 96 4f e9 8a fa d7 3f
       0.0004972857509958635 0.3746669081141214
000580 58 b3 6e 7a a7 6b d3 3f 9a 4a a6 00 54 f9 cb bf
       0.30344569164554036 -0.21854639083592958
000590 b4 47 20 19 e1 72 da 3f 4a 86 4e ed 4c 36 ce 3f
       0.4132616753932965 0.2360321196293163
0005a0 f5 71 e1 9b e3 06 e6 3f 68 57 b8 02 a0 e4 a0 3f
       0.6883409542602396 0.03299427064136645
0005b0 d9 b0 2e 2e 6a 66 ca 3f f0 74 9f 6d c0 bd aa bf
       0.2062504506587917 -0.05222894037408732
0005c0 1f 35 74 7b 26 e8 e0 3f 83 9f 2b a2 a9 2c e2 3f
       0.528338662262886 0.5679519812956503
0005d0 f1 d7 5b b5 c1 92 b5 3f 19 1c ad 4c b4 29 c8 3f
       0.08427057912544435 0.1887727140803868
0005e0 e6 21 8f 89 dc c5 c0 bf 92 b7 d3 85 00 b9 d1 3f
       -0.13103825299027888 0.27691662854237464
0005f0 6b 7a ae 5f e3 d6 c8 3f ef a9 9d 35 57 f3 c7 bf
       0.1940578667826743 -0.18711366765940293
000600 fe d4 ff a1 62 46 c1 3f 05 0b 3d ba a8 e8 cc 3f
       0.13496048841594893 0.22585019200968062
000610 e3 87 18 2f 9b 5f db 3f ae 1a 17 8c 02 de d2 3f
       0.4277103385849143 0.2948004119938713
000620 15 94 aa 4f 4d 2a c8 3f 4b fc b4 94 1b 1e d6 3f
       0.1887909544940675 0.34558763048329827
000630 87 59 d0 a7 d2 a0 ad 3f c1 17 11 bb e0 c4 bb bf
       0.05786760614880664 -0.10847286765155585
000640 46 7f 10 a3 80 f9 d9 3f 1c c2 d2 f3 29 4c d8 3f
       0.405853423349971 0.3796486741148628
000650 f6 90 38 11 d6 fc c8 bf 47 1b c2 93 89 5e e0 3f
       -0.19521594849459917 0.5115402112868218
000660 0c 74 5d 6a 0d 23 c3 3f 99 2b f5 b5 98 7b bd bf
       0.1495072144852262 -0.11516718332602095
000670 f1 83 bd b2 12 b5 e1 3f 29 56 42 de 41 46 d2 3f
       0.5533536425610902 0.2855381651400842
000680 c2 52 dc 83 dd 93 d3 3f 31 95 d7 87 af 6c c2 bf
       0.3058999812795201 -0.14394182331958796
000690 75 30 a4 11 cd e8 93 bf 12 9d 47 76 af 90 89 3f
       -0.019442753030532296 0.012482996747122974
0006a0 58 1c 25 38 dc a3 d7 3f 7e 4e f9 b1 0e cf d0 3f
       0.3693762348452245 0.2626377809549253
0006b0 7f f0 70 67 76 8b d6 3f a8 72 a0 39 c6 5c d0 bf
       0.35226211644818045 -0.25566249492275483
0006c0 46 57 a7 29 29 09 b0 3f 39 30 55 26 35 2d c1 3f
       0.06263978259025035 0.13419212695805685
0006d0 23 a5 f7 ee 54 12 a3 bf a0 fb 3d 14 1e c5 bf bf
       -0.0372492353161056 -0.12410152429764176
0006e0 42 ee bc 95 36 f0 a5 3f c7 66 71 09 52 a4 d0 3f
       0.04284830644470762 0.26002932474294166
0006f0 2d 8e 60 72 54 7a da 3f 57 a4 ca ac bc cc da 3f
       0.41371642274518444 0.41874615549256106
000700 d9 2e 43 ee dc 56 95 bf 20 a7 9d b6 ec 9c ba 3f
       -0.02083916858900534 0.10395698030847855
000710 3b af 53 0c d8 fe a2 bf e2 42 9b 5a 6f 5c dc 3f
       -0.037100554947612406 0.44314178322114917
000720 3e ee 44 c7 7f 12 9a bf 16 3a 62 5b 45 fa ba bf
       -0.025461193597250402 -0.10538133126303992
000730 c6 3a d3 c1 ee 9c d3 bf b4 60 3f e3 29 8e a2 3f
       -0.3064534085105318 0.03624087237375431
000740 f1 c0 ea 22 fb 2d b3 3f ee 36 ae 49 a4 df c5 bf
       0.07492036440340023 -0.17088750455552976
000750 dc 15 de a7 f8 91 c0 bf d6 a4 66 a2 e2 ab d2 3f
       -0.12945469090133954 0.29174104556530034
000760 70 11 76 f4 f1 5e d8 3f d9 fe 08 16 12 14 d7 bf
       0.380794991237301 -0.3606000151812459
000770 13 64 0a d4 c1 7a c3 bf 6c f7 29 6e 76 21 c8 3f
       -0.15218375066322717 0.1885211980733702
000780 52 64 ef 50 e3 cf 40 3f e6 45 d4 ef d1 b3 da 3f
       0.0005130634252693644 0.4172253458101224
000790 c5 17 21 5e a8 f9 d6 3f fb 65 0f 75 79 fe db 3f
       0.35898789589225216 0.43740688735633143
0007a0 50 92 78 e4 c9 80 a6 3f bb 5c d1 17 5c 4b d0 3f
       0.04395132936432289 0.2545995934101019
0007b0 55 52 e9 98 47 a7 ba 3f 36 03 2a 1a 1c 9e d3 3f
       0.10411498530567916 0.3065252547749425
0007c0 96 e5 29 ac 85 f2 9d 3f 07 01 ed 13 16 1a df 3f
       0.029245461113963943 0.48596717782858473
0007d0 1a 5b 60 12 d7 c4 cc 3f cd 88 c6 d7 0c 76 e0 bf
       0.2247570838669269 -0.5144104208341332
0007e0 49 95 5a 55 2e d7 b8 bf 98 70 fd 28 b4 f6 95 bf
       -0.09703340133508677 -0.021448912622290622
0007f0 57 fc 56 39 5b 5f b2 3f e4 d5 a6 ec 13 d7 e0 3f
       0.07176752233407178 0.5262546178916492
