src/trained_rbm/rbm.pen+lbl--top.bias_h.npy (npy, 16128 bytes, 1 tensors)

array f8 [2000]
00000000: 5202 8f93 0019 ba3f b77f ca6f d832 953f
00000010: 594d 7e65 8172 b5bf 6ee0 85bd 8046 b23f
00000020: c10c 060c 3fda a23f 7f06 1786 9f74 a7bf
00000030: d31f 6843 e26d 9d3f d7cb fe7f a885 c43f
00000040: 2f9e 5887 7e43 3abf df36 9cac 1f7c bfbf
00000050: 863f 174a 131a bbbf 4b6f 21ac 4d25 b6bf
00000060: 573c 757b 3f2b c0bf 9805 5eaa 29cf b6bf
00000070: b29d d2d1 8d7b cc3f f3f7 3186 7cc7 8bbf
00000080: 3e4f 815b 6f0a b9bf 4081 078f eefb 80bf
00000090: e487 289c 8923 a4bf 0ce8 1c27 cd18 b7bf
000000a0: c3d3 c590 840c ab3f 00b5 a05b 085f bdbf
000000b0: 5ffd d508 5b9c 78bf bdf0 7322 2e6e a2bf
000000c0: c9a7 6f7d 6223 b0bf 506d 27de 6028 bebf
000000d0: 0658 3938 2582 b5bf f038 0e56 1fcc ba3f
000000e0: f364 194f 90d5 e03f 0792 f7be a447 d53f
000000f0: e6d8 35ef b226 c03f 36e3 c980 228d b3bf
00000100: aeeb 3015 3aea b7bf 8919 ddc7 b01c b8bf
00000110: 0d7b 442b 1456 c0bf a717 1e95 200b 933f
00000120: 84fc 413b 457b cf3f 0117 b01d 49c0 b9bf
00000130: b34d bdfc a035 a8bf a0fb b507 e895 d63f
00000140: 5e21 0042 efac c83f 0916 aa65 1539 ab3f
00000150: 7ef4 8b77 5e49 b5bf 7e5d a065 b1e9 bdbf
00000160: 9d78 879d 0192 d73f 64af 58b5 6d64 afbf
00000170: a94f b4d8 132d b1bf b3bd ad06 1520 bbbf
00000180: 50d3 69ec bd60 acbf 2ad4 c5b3 097e d43f
00000190: 2878 1826 4c9d 943f c06e 6834 6f88 c1bf
000001a0: 0939 be35 b1d1 cd3f f091 9c04 8220 c23f
000001b0: c9e7 7f41 ab0b b6bf ac65 3fd8 d920 d13f
000001c0: e3dc 5b6f 7952 b1bf c294 89d8 8d12 cb3f
000001d0: 398e 3d57 ca71 aa3f ef57 119d e51d da3f
000001e0: 3a76 4ee5 34ce c73f c6bb fd3b 4ce2 9c3f
000001f0: 6b95 aa18 9b81 d33f b2bd 37ec 1f94 ca3f
00000200: 892a beb9 209e 8cbf aac1 9d4d bdbe d63f
00000210: 9783 2f56 b7ba c0bf e132 6735 68cb bebf
00000220: 3add a444 4511 aebf d499 e45f d5a8 bbbf
00000230: ba0e d3bc 31a1 563f e066 a62d 452c c53f
00000240: 8c3b 42aa 3d4d b2bf 888a cc3b be8e b0bf
00000250: 0dc2 c172 0012 a63f 330c b59d 5ceb 9bbf
00000260: e31f 5477 8866 acbf 2fe0 64cd 44bb cb3f
00000270: c0d6 7269 0e3f b83f 5d98 5669 b9fa b93f
00000280: edc9 16ff cdf0 bdbf b607 61a5 d25e d93f
00000290: c0f6 3086 9174 ba3f 473e 0e23 3c86 c13f
000002a0: 8d15 7859 a364 d83f 2f7b bacc 4f4a c23f
000002b0: 7c8d caf7 4972 a5bf a33a fd4f 975d b5bf
000002c0: 366c 903c cb72 bcbf 1253 e309 2b09 c0bf
000002d0: 8894 d1f4 f7b1 ae3f eacf 62d2 ad96 c53f
000002e0: b185 ac61 ff16 d93f f135 8f6d e72d c23f
000002f0: 5597 903f 3ac0 d33f 7407 20b8 1559 a83f
00000300: 4d5a 4e0f 4edf de3f 0550 e0c2 b976 9cbf
00000310: f189 c9eb 5959 bdbf bb8c c0b0 dea8 b9bf
00000320: 87cf d0eb 0797 d83f 6653 93db 06e8 bbbf
00000330: e8e1 5e6d 05c2 c33f 5c7b ee25 1989 a43f
00000340: a0db 1e7c 8181 c23f 8f72 b595 613e b9bf
00000350: a4dc eff5 4557 8dbf 3df0 6401 0cf0 b43f
00000360: 45f7 2bb8 4743 babf 52b6 f3b0 99c7 bebf
00000370: c1da feb9 dd29 babf 90fe de99 1c14 c0bf
00000380: 95e2 807f 9f7a 9a3f deb1 6396 8e64 bf3f
00000390: dac0 18a3 4f9a bbbf 4057 c9c0 f1fe bbbf
000003a0: 60ff a23c 10df d13f 33ce ecef df4a bbbf
000003b0: 5333 ad3b 8259 b4bf 3f17 3843 c5f2 b4bf
000003c0: 54df c8da b842 bebf 9399 90c2 2753 b0bf
000003d0: 75c7 6fff e112 c73f 7d74 a179 44e8 d43f
000003e0: b3e2 c550 67c7 b13f c6e9 9f05 892d b6bf
000003f0: 9999 439e abe6 d83f 6bc2 9035 924f c03f
00000400: 2769 b642 fd0e d43f 2493 c65c d09f a7bf
00000410: a3b4 500e 2065 b4bf f7ab f95d f884 cf3f
00000420: 2ebc e1c5 4fe3 ae3f a723 375a e3e7 b7bf
00000430: 2fb7 3ec4 dca1 b1bf 55cc fe17 488a bdbf
00000440: 926b 1679 6058 99bf 5ae2 caf3 8544 b2bf
00000450: 4d7f ce28 bc91 d13f e0d3 2548 d449 b0bf
00000460: 5c86 f13b af16 a6bf 1d7a b359 d648 9dbf
00000470: bf4c 90ef 597f 803f 2094 77b9 7e86 bdbf
00000480: a910 2a23 47f5 d03f d267 7a74 ffa0 99bf
00000490: bfe1 ec9c 011a bfbf df79 90a5 744f d43f
000004a0: c2c9 c633 0ad1 b8bf 29b8 6a14 019c b2bf
000004b0: 2ae7 5c6e 5d48 aebf f53d 2701 8426 c83f
000004c0: 2ba2 4fbd 0876 a8bf 31b5 b46a 6e2f 2f3f
000004d0: e32b 6d9f 99ed bdbf 8ff0 1c3f 91ee bb3f
000004e0: d22c 0c40 0905 b8bf 8a9b 2fb3 27a5 bfbf
000004f0: 686a a73f 9bf9 b8bf 8511 fd4a 150c d23f
00000500: f705 1feb 9815 a3bf d827 b0d5 c120 cf3f
00000510: 4874 8b7b 6c5c b0bf 7f7e a116 7788 c33f
00000520: 732c ffa4 4ae6 db3f f81e f880 8fe7 c43f
00000530: 6bfc b7b0 2f3c b43f 4adf 1baf 5730 a83f
00000540: 5391 959c 8e04 9dbf 1720 c24e 2454 adbf
00000550: b74b a0ab 3969 653f a92c 9895 ec32 b23f
00000560: 541e 724b 6f80 aabf 590f b0fe 2872 c33f
00000570: 2cda ed79 a1ec a73f f60c 141c de96 6d3f
00000580: 2648 3228 ba06 ce3f f2dc 246b 77f3 b7bf
00000590: 999e d55a 3d43 b63f 566b f976 0e37 b7bf
000005a0: d598 06ad d782 c53f 5b6d 829f c461 aa3f
000005b0: e64c b2b1 18cf b1bf 012a a9af 1a1c b03f
000005c0: 3e1a 3a96 18f1 babf d11f 3951 94bf b73f
000005d0: 4c03 57ae ff8d c63f a760 55eb be60 bfbf
000005e0: ed89 f0b8 dc59 bf3f 94c4 120e 26f9 b6bf
000005f0: 591f 06ff e4bd b23f a137 b18c 5fe4 c93f
00000600: 4ae1 2a15 5967 9c3f 1726 2021 a3cd d13f
00000610: c0ca 3c2c a1f6 abbf 434b 792d 7813 9abf
00000620: 5396 a05b ac4c dd3f 484e 924a 523c b83f
00000630: 3d3e 7a73 923e aebf fa61 261f ae6c b2bf
00000640: 7d0e 64be 3509 b9bf 49c4 10e7 fe88 c93f
00000650: c7a1 d916 f5db 94bf da31 0d96 8c92 b7bf
00000660: 9667 6016 d31f b6bf 3f82 5b7e 1a1e a63f
00000670: f0b1 e35a 0b61 c63f fc4b dd71 d394 d63f
00000680: 4b35 bf6f 420d b63f 15f8 4232 5829 9c3f
00000690: ece5 2fe3 6d66 94bf 6dc6 ce01 4f96 b6bf
000006a0: 86ee c91d 19bb b43f cb97 b412 6f7b b93f
000006b0: 6443 caef 901d bdbf df1c b6d8 6eed d53f
000006c0: a868 3cb1 b1e2 bcbf f5f9 d12f 493f bbbf
000006d0: da9b f99c c2f3 8bbf dd16 a608 b0ec be3f
000006e0: d86b f12e b4ae d63f 4362 872a 3a44 c43f
000006f0: 3442 94c9 1362 c93f 4d7e 65ad d2e9 b03f
00000700: 4c6f c7cd 6559 bb3f e9d5 30e5 5ff7 d23f
00000710: 5678 ca96 d19a c13f ac59 92e4 1100 9abf
00000720: 2d96 8abe cc4f dc3f 031c fcc5 0b93 bb3f
00000730: 2bd3 1159 0323 acbf ef1f bd8b 07b6 b7bf
00000740: 15da a756 c7ee db3f 1f20 88d6 31ad bd3f
00000750: a901 5cbf 1a69 babf 7167 21ee 70c2 babf
00000760: d489 9a44 6b06 8fbf 08dc b68c 78bf a7bf
00000770: d7b1 402e 2e04 b53f d4e8 47ae 1e2b babf
00000780: fc05 74ce 12c6 c43f bf9e b573 2d6a d13f
00000790: 54bb 6939 3be8 a4bf 3ec2 56c6 f1bc bb3f
000007a0: e277 cdd0 cd29 b13f 7779 ac0a 9b9a c0bf
000007b0: f1c0 d1f0 773b dd3f e695 9923 e81a ba3f
000007c0: 4f2a 4890 5e48 bfbf 8d1c a872 5f5f bcbf
000007d0: 46b1 1816 2674 b43f db84 4f5a 19c6 a2bf
000007e0: 2102 f874 52ff e13f bc27 a754 db87 b6bf
000007f0: 582f a84b 665e d03f 6fcb d32e 3f1a aabf
0.1019440040827331 0.0207017725211924 -0.08377846458306716 0.07138828875565803 0.036821336953857926 -0.0458116389450085 0.028739486087971344 0.1603289246537247
-0.00040075148658267034 -0.12298772777668486 -0.10586662825448742 -0.08650670483023963 -0.12631982353420554 -0.08909855279309509 0.22252056832551897 -0.013564083905517754
-0.09781547531138998 -0.008293021907718967 -0.039333629905982354 -0.0902221889963643 0.05282987849469791 -0.11473133313184647 -0.006008487323355765 -0.03599685831611186
-0.06303992807775595 -0.11780362533265998 -0.08401711104065165 0.1046771607491086 0.5260697884470161 0.33249777459266777 0.1261809986132853 -0.0763722958016729
-0.09341776864395854 -0.0941877830456176 -0.12762691605254198 0.018597134686863772 0.2459494151443985 -0.10059029555131006 -0.04728415570448465 0.35289955857290956
0.1927775451915847 0.05316988817234509 -0.08315077227230636 -0.11684712153543406 0.3682865179415645 -0.06131308401776783 -0.06709407845147432 -0.10595828450254068
-0.055425582036071064 0.32019274288114963 0.02013129217640866 -0.1369761472604889 0.23296179889843696 0.14161706185508605 -0.08611555432426522 0.26763006322797867
-0.06766470879289303 0.21150372574917325 0.05164940180727879 0.4080747636666037 0.18598042675596266 0.028207007562226293 0.3047855130083323 0.20764540704793216
-0.0139734799083915 0.35539181308470325 -0.130698124964536 -0.12029124549662697 -0.05872551405848943 -0.1080449446786596 0.0013812051504808313 0.16541352013592014
-0.07149110228259142 -0.06467808685241938 0.04310609246102013 -0.027265021444019943 -0.055469765249710944 0.2166524889851202 0.09471216272762728 0.10148199865088388
-0.11695563771971935 0.39641252661032966 0.10334119344858106 0.13690902435017646 0.3811424611779664 0.14289281364923442 -0.041887580392791585 -0.08345933630810491
-0.1111266157972047 -0.12527978880702811 0.05995154250630558 0.1686608578944509 0.39202866114109286 0.1420258793790903 0.3086076374769296 0.04755466339703576
0.48237945074780414 -0.027796652335453604 -0.11464464193844727 -0.10023299994695638 0.3842181971442575 -0.10900919781427162 0.15435855713236823 0.04010847652465685
0.1445772033746069 -0.09860811142920965 -0.014326616828823475 0.08178782495537092 -0.10258911367779174 -0.12023315973393636 -0.10220132628351576 -0.1256137610744088
0.025858394772714084 0.12262812778107654 -0.10782335025647019 -0.10935889202786786 0.27923971101335177 -0.10661124808830706 -0.0794907947249162 -0.08182938471881317
-0.11820559827253635 -0.06376884937399145 0.18026375744335224 0.3266764819907804 0.06944890710827671 -0.08663231265374013 0.3890790029094205 0.12742831817151354
0.31341487421890907 -0.04614115841403635 -0.07966804837697565 0.24624542797695856 0.060327999978533206 -0.09338208153270831 -0.06887607375275871 -0.11539126001189122
-0.024751193419074342 -0.07135808183637363 0.27451995835325677 -0.06362654458446526 -0.043141819064442116 -0.02859816477291065 0.00805540335026078 -0.11533348110204189
0.2649705737496882 -0.025028220638524896 -0.12149057465729295 0.31734958809275143 -0.09693969501566982 -0.07269293545206836 -0.05914585087016484 0.1886754041320128
-0.047775529011975536 0.00023792479383059334 -0.11690673963782632 0.10910899916501847 -0.09382684529934984 -0.12361381649644279 -0.09755869201709688 0.28198749850368926
-0.03727414960986757 0.24318716939916274 -0.06391027466038779 0.15260208706876097 0.435930882577572 0.16331666753125496 0.07904336990758203 0.04724382412490387
-0.02833769636835488 -0.05728257619290405 0.002613651883629466 0.07108954097945976 -0.05176112934082924 0.1519213908760502 0.04672722447769603 0.0036119783477502844
0.23458029711452005 -0.09355875364132141 0.08696349589956255 -0.09068384556432582 0.168055495724906 0.05152716109406682 -0.06956629122059929 0.06292883671373063
-0.10524133365297758 0.09276701910960063 0.17620845806779994 -0.12256997342535901 0.12246493830802026 -0.08973920672976227 0.07321006036920376 0.20228189820994394
0.027737991253816298 0.27817610011024513 -0.05461600937851108 -0.02546489503431394 0.4578047652051726 0.09467043228715355 -0.05907113704335785 -0.07197082767959975
-0.09779678247655883 0.1994932773828018 -0.020370320815716682 -0.09207991278999064 -0.08642310425093877 0.0431984214062635 0.17483655870400083 0.3528336154897145
0.08613982418247194 0.027501466815685733 -0.01992198657169368 -0.08823102754720376 0.08097989060655139 0.09953970152545748 -0.11373239378214134 0.3426167599031497
-0.11283407761621567 -0.10643441598401877 -0.013648529448984027 0.12079906664993297 0.35441307625086216 0.15833212925532977 0.19830558150035105 0.06606785519897436
0.10683285020735162 0.29634854680929706 0.1375371919902501 -0.025390891624363185 0.4423705921893511 0.10771249374020901 -0.05495462858463037 -0.09262129937735585
0.4364488931891242 0.11592399108496963 -0.10316626712665901 -0.10452943624241386 -0.015148962050550198 -0.0463826820154552 0.08209503773895875 -0.10222045664696405
0.1622947223732324 0.27210556316138573 -0.04083428455202545 0.10835181324251494 0.06704412791938766 -0.12971818944147248 0.4567546703101604 0.10197306508197065
-0.1221980192423555 -0.11083027409778108 0.0798972896524833 -0.036667625688787196 0.562417248205808 -0.08801050965044416 0.2557616938436147 -0.05098149725554079
