src/trained_rbm/rbm.hid--pen.bias_h.npy (npy, 4128 bytes, 1 tensors)

array f8 [500]
00000000: f5a4 1885 de4f c33f 6792 0c40 244d 87bf
00000010: dd3e 47b5 418b cb3f c97f f067 d091 b63f
00000020: 8781 4ac8 b983 d13f 8319 0922 9268 ce3f
00000030: 70e5 5535 8b62 bf3f 4146 e39a 014e bd3f
00000040: 2457 c7a1 85d3 523f 3df9 362c 9ee3 d03f
00000050: 192f 07fb b7e2 cf3f 92ab 57aa 938a dc3f
00000060: 0c6e 0271 1d0d b53f 4e4a 9a58 43e8 cc3f
00000070: 3716 d6ac 40e3 d03f cb7c 04d7 cb37 a7bf
00000080: 48c1 63c1 8b5b d83f 0b37 08c4 2d1b c23f
00000090: bb3c f7b5 a707 a4bf 0265 25d4 be8f d73f
000000a0: aa09 6a40 aba1 db3f c5bb abe3 b846 d43f
000000b0: 1809 8d21 1679 d0bf b03c 03a3 f7d4 d13f
000000c0: 2bed cb65 ab2a c33f ddcb c196 dd7e cf3f
000000d0: a0bd ce16 89ec cabf 2ed6 1483 7a75 ca3f
000000e0: 48cf f81c 2d68 bb3f 9757 a063 6c89 d83f
000000f0: 0c8d b163 9019 c03f 33d9 c122 80cb ce3f
00000100: 0649 19b9 a3f3 a5bf 96ab 4341 a6ea d93f
00000110: a5f3 3f92 b3b5 da3f 6f57 a6e8 2aad babf
00000120: 41bc 7cec da8e a03f cbfd 11a5 8cb3 c63f
00000130: 1a4a 8990 cfcd d83f c4c6 c347 3fa3 afbf
00000140: 6443 074b ec9d d73f 92da a6c5 cdc7 bf3f
00000150: b63c aa0c 2080 7c3f b134 255f f200 8d3f
00000160: 3032 e8dc 6b28 da3f 6041 abe7 0399 cc3f
00000170: 06bb 2040 31a7 b73f a790 9acf da43 c43f
00000180: a5c4 74a9 e7ce c7bf 572f b9f2 aafb b03f
00000190: 31cd 1c28 76ec c33f 8284 175c ac9a d43f
000001a0: 4aeb d727 4ea7 af3f 8b60 7d77 6b4e cd3f
000001b0: c24d 3ea1 8785 c73f 7a61 4fd5 daa9 d33f
000001c0: e096 6d37 62bb a2bf bef6 c97a f8ae d53f
000001d0: 3350 8de3 1ab9 d93f 71df 3fcb 3c07 da3f
000001e0: 3d7e 28ff ca3f ce3f 0bf1 3716 f26c d23f
000001f0: 2bc3 3a1d a531 d13f b820 5980 0b81 c73f
00000200: bd65 3f18 ca46 cc3f ab9e f25e f057 70bf
00000210: c3fe a5df ace1 d33f cb3f 3290 c81e cd3f
00000220: b333 0aa8 646f b3bf a25e 1776 6b23 d23f
00000230: 0f31 32a4 880a b7bf d047 f19f dc8c d23f
00000240: 4f9d 4f16 900a de3f bfb4 652c 40f0 cabf
00000250: e621 a957 473f d23f eaab b6f2 1d15 c93f
00000260: 8971 ce88 7eea dc3f 8642 5b85 22ae d13f
00000270: bb18 9f60 1369 d33f 29cf 6164 1c01 d63f
00000280: 5250 571b 2248 de3f c2c4 aca8 a59b d13f
00000290: c5bb aba1 436c da3f 35c7 8231 4b95 8ebf
000002a0: 1f51 77ae f711 b3bf 69ea f784 78af cf3f
000002b0: b648 b2f1 dd8d 8ebf 1e7a a432 4693 cc3f
000002c0: 34d3 9fb2 a345 95bf 9ef5 545e 84dd b5bf
000002d0: 2364 3f1f 031b babf 2acb 6b03 4abc cf3f
000002e0: 9952 21ae d4d5 db3f 3a12 bdcb 0687 d23f
000002f0: ad2f 0c68 8c6a c33f e0ea d3d5 67e3 b93f
00000300: dc3d e3a1 f342 a4bf 5789 f044 7254 b4bf
00000310: 1fb5 7b8d d042 b6bf b87f 93f6 f359 b8bf
00000320: 3aa8 3063 628d 9bbf 8fbc 440e 3df3 c73f
00000330: c06d 0c14 73b7 db3f df20 d07c 19df cf3f
00000340: 63f3 becd 119d df3f fb01 7034 e990 d03f
00000350: 020c 224a 580f b8bf d3be 98b6 1069 d33f
00000360: 88f7 5644 f60a b43f 7d3d e245 740c 993f
00000370: 3ddc 76f9 ddc8 c53f 206d 6d02 6eb6 84bf
00000380: 94a6 97b7 f7bd b03f 8953 0493 ee04 c43f
00000390: d036 786d 8ac1 be3f 2b17 96e9 54ab db3f
000003a0: 829a 1a64 0ab1 c23f beef 83a6 ada6 b53f
000003b0: 3d59 510d 995a b1bf 44ab 692c c522 a23f
000003c0: 4fe0 f191 e846 89bf ec64 f59c 14af a8bf
000003d0: 3e95 4846 5a12 bc3f e014 2635 a520 893f
000003e0: 370a e747 0e12 c93f 9c1b 49ce 14e7 cd3f
000003f0: e005 8377 de4d 96bf 07ea 4b55 8964 b1bf
00000400: 41d4 f2a7 9768 c73f 6f16 f768 ca7f 7d3f
00000410: b4be b39f 4e45 c93f d8ee 12fe 1732 d53f
00000420: 25d6 f2cb d5d8 d23f a190 5194 beb7 c1bf
00000430: 25a7 3344 cbc4 d63f 706f 91b1 b293 ba3f
00000440: a92d 9e14 f60b ca3f 181a 8014 9d71 e03f
00000450: 68a1 4823 4b9f c63f c45e 2aae 6f5e b43f
00000460: f161 8a7e 772b c23f 09a6 6e58 c217 98bf
00000470: d144 0096 2878 da3f e83f 6f2d d185 d53f
00000480: acee 1feb b32e b3bf e923 540b 6ee9 afbf
00000490: a4a1 6721 b176 b5bf 96d6 9d33 7aa1 c73f
000004a0: 2b56 7862 c6ee c93f 4e97 23c4 55d8 d03f
000004b0: 3a68 5ab9 20be 5fbf fdd9 e36e e22a d13f
000004c0: 4538 cd72 5497 c53f 5f65 d807 3a54 ca3f
000004d0: 8aa8 2f83 7b14 d13f ca30 39dc 5932 d23f
000004e0: 0ba7 260a c078 d43f 23d3 b38c 3743 d33f
000004f0: 2e8d 93de cccf 993f 4d4f 82ac f290 c53f
00000500: 2b7c f364 d6df e13f bb5c cb0e f955 c63f
00000510: ec24 52c7 35b1 b83f f2d0 85c3 dead c5bf
00000520: ab55 4fa4 3ce3 a53f 7673 0f92 aa72 d43f
00000530: 4d10 da5d 1fa2 b0bf dce2 fdb7 0bf1 d93f
00000540: b838 97db fbb3 9c3f b2a1 19da 37bd cc3f
00000550: 23a8 7cf0 7edb da3f e5dc 55e6 a920 8d3f
00000560: 8c83 223c 75d3 b43f 8679 0967 5eb4 c23f
00000570: 4af5 d5c0 f5a7 af3f 9d64 a056 ab04 b03f
00000580: 8700 1e20 809f d33f c5e1 1955 569e 963f
00000590: c601 be2b f6f8 b13f 75b1 76ca be37 c33f
000005a0: e30c e593 82df 8d3f 43d7 b0eb a46f c13f
000005b0: 760f 17cf ee80 ae3f 5e86 0592 4085 aabf
000005c0: 2bba 319e 19b6 bf3f d0b6 cdb9 18d4 be3f
000005d0: cd02 3c3e 5cd0 cf3f 709a d1e9 c199 9fbf
000005e0: 3084 79f4 2ae8 b3bf 6f20 8fc6 d50b bd3f
000005f0: ff2c e6ad d27d c6bf dad1 b8bc 8017 b23f
00000600: 11e5 7f1d 3a5a c13f 1a63 37f2 cee6 ab3f
00000610: f4e3 0e8c 557f dd3f 7747 2003 77a8 9ebf
00000620: ab6b 344f 2a29 c73f d208 f3e1 8140 d83f
00000630: b545 080b 3b76 d43f cacc 419e 8ff9 c53f
00000640: 6a62 5956 37e6 ad3f 10db 2523 45a8 ba3f
00000650: 4619 e4da 1190 99bf cdeb 982d 85e9 aebf
00000660: cfae 579c bd80 bc3f 93a5 fe71 3c93 c13f
00000670: 97b1 841c c638 c03f 416a 0771 3e96 983f
00000680: 5dfd 9877 8bad 953f bb6b b3d2 9084 b93f
00000690: 3f68 3abe 34e8 b83f 64d4 4640 c31b 863f
000006a0: abb3 53d3 15d8 84bf 9287 36c2 3af6 c23f
000006b0: 40f1 779d 3d05 d43f dc7a af40 039a c43f
000006c0: 7521 3e35 3d04 c23f a65c b2c3 bf56 be3f
000006d0: 7462 af1c d06d c03f cf2d 7a00 fea8 77bf
000006e0: 39fc 3261 505e b23f b67d e6c7 7850 90bf
000006f0: 1d52 84b0 4bd4 a63f 94d3 5a55 ebf5 903f
00000700: 7ae7 0266 5a16 d73f 3453 50d5 12f7 afbf
00000710: 6d14 ed46 5718 a6bf 92d1 e598 4894 c83f
00000720: 6a5b 08d7 40ed a9bf 2f89 7e5b 34fc c43f
00000730: ffe3 6312 2d71 d63f 6808 0044 58b8 c5bf
00000740: 7923 5162 833f d03f 33f9 c1fc c632 afbf
00000750: 3688 520f 0f43 7b3f c13e fb1a 36ab c3bf
00000760: 88e6 a8a6 0875 dc3f a1d1 3f1f 73f8 b43f
00000770: 6cea f3e9 a760 c23f ee3a 5966 bcf4 ca3f
00000780: 4983 3215 bc07 d33f 7778 31bf 1192 b03f
00000790: 40b3 f5aa ef57 bdbf 84e1 12b7 cbe0 cbbf
000007a0: 6912 ff24 a056 e13f d157 328d d678 bd3f
000007b0: 6765 5703 300b d13f 65ec 5c16 799e b63f
000007c0: 7d00 7289 7959 c83f 30c4 e839 97eb cb3f
000007d0: b388 0a8b 9a32 cc3f 6848 6a6b d3ee d73f
000007e0: 7064 76a9 fd51 e13f 8d74 06bc a2aa b6bf
000007f0: b72f f00f f1f5 d53f 57bd bce9 0b60 c63f
0.15087491511193432 -0.011377604679702459 0.21518727637748372 0.08816244638046479 0.27366489944144984 0.23756624853031036 0.12259740879189507 0.11447153121414379
0.0011490635871402389 0.2638926917824341 0.24910640485028848 0.44595805773740793 0.08223136910458367 0.22583810640624552 0.2638704002241385 -0.04534756660199831
0.3805875195094086 0.14145443031196012 -0.03912090393316122 0.36814852445020574 0.43174248972368423 0.31681654199104187 -0.25739053036171944 0.2786234943313941
0.14973967047249323 0.2460591302984473 -0.21034349073077596 0.20671016121348046 0.10705835301706401 0.3833876583970492 0.12578015201425108 0.24058534333352952
-0.04287444719797588 0.4049468648287812 0.41734017641266014 -0.10420482807088914 0.032339898460457046 0.17735441265175064 0.3875616942870309 -0.06179235220942084
0.3690138561915346 0.1241425139950059 0.006958127206089395 0.014161962059598162 0.4087171227736546 0.22341965496026273 0.09239490333196096 0.15832076203253573
-0.1860017373487938 0.06634014535773979 0.15565373381250816 0.3219405078253389 0.06182331310625118 0.22895568212948478 0.18376250622951146 0.3072421153169881
-0.036585873857615914 0.33880435935121145 0.4019229147136258 0.4066917404993467 0.23632180651564907 0.2878995148637535 0.2686550889439327 0.18362563864707737
0.22091032203642938 -0.003990115116870345 0.3106491264406765 0.22750193634828828 -0.07591847517524179 0.283411851237796 -0.09000448235218904 0.2898475229204651
0.4693947046166231 -0.2104568688186301 0.28511222420323035 0.1959569392323311 0.451812394714374 0.2762533476170933 0.30328831134501016 0.3438178043645502
0.47315266294504454 0.27512494537502274 0.41285792148749706 -0.014933192680789279 -0.07449291238237209 0.24754244320486699 -0.01491902726983017 0.22324445221688988
-0.020773465897906365 -0.08541133215927352 -0.1019746733940257 0.24793362776798605 0.4349261951913746 0.28949136635154427 0.15168910103272762 0.10112618418126429
-0.03957330084960706 -0.07941354926200482 -0.08695701078587036 -0.09512257356573073 -0.026906525901871904 0.1871105498953267 0.43307187040201356 0.24899595827469675
0.49396176426289723 0.2588446628651863 -0.09398414430511084 0.30328767615990876 0.07829226654481947 0.024461571469655653 0.1701924770438569 -0.010113582085685524
0.06539867622600531 0.15640051058349183 0.12014069721791576 0.4323322564235805 0.1460278500355408 0.08457455935780353 -0.06778866362706011 0.03542152564189974
-0.012342278436548918 -0.04821075836179908 0.10965503898531367 0.012269297298880877 0.19586351881851424 0.2336145407918736 -0.021781421703740977 -0.06794031460223247
0.18287940693486074 0.0072019487992683725 0.19742758558230877 0.3311824780646311 0.29448456684926533 -0.13841993562812596 0.3557613531144049 0.10381619296225408
0.203490028445555 0.5138688469313051 0.17673625204885046 0.07956598283851252 0.1419515006898702 -0.023528134009813715 0.4135838951925282 0.3362925475785219
-0.07493137827253332 -0.062327803500075 -0.0838423449091637 0.1846153976472819 0.2025993328867782 0.2632040419979277 -0.0019374198504125265 0.26824246243577915
0.16868072133587667 0.20569539435454495 0.26687515078686685 0.2843231821650646 0.31987000457103026 0.30097759952995967 0.025206757626517966 0.1684859602288448
0.5585739108754572 0.1744986841428949 0.09645401111824342 -0.16936859652526653 0.04274930482612701 0.31949867500025364 -0.06497379342369065 0.4053372666162838
0.028030333783868072 0.22452448033733458 0.41964696393063344 0.014222457258013363 0.08135159223685501 0.14612941771606475 0.06182830790474243 0.06257124771981855
0.30661013733334425 0.022088383621367464 0.07020510261464272 0.15013871084137134 0.014586467874897873 0.1362196112474355 0.05957742956118654 -0.05179788382043847
0.12387237655796272 0.12042383705348958 0.24854615248479775 -0.030859975715794297 -0.0777613493787761 0.11346183869966507 -0.17571481219452065 0.07067112548322232
0.13556600990686055 0.05449530321829439 0.4608968608623052 -0.029939517560769482 0.1809437643758803 0.3789372164284376 0.31971622540830974 0.17167849757570358
0.05839703492228383 0.1041300974664916 -0.02496364496712402 -0.06037536794288876 0.11133942667919004 0.1373057896246733 0.12673260109421555 0.02401063504098944
0.02116983334985655 0.09967904228271511 0.09729318279497166 0.010795140646999886 -0.010177774917304058 0.1481393287950224 0.31281986596856726 0.16095009478063715
0.1407543668722259 0.11851118591072182 0.1283512249053903 -0.005776397890837128 0.07175161717440028 -0.015931975556325383 0.04458843736407323 0.016563107571261407
0.3607393261150872 -0.062431896724012864 -0.04315445652768166 0.192025255829901 -0.05063822388563362 0.1639466711759012 0.35065771861951583 -0.16968825645750774
0.253876539242405 -0.06093427501126527 0.006655749156523829 -0.15366245572521645 0.4446431758438867 0.08191604149744204 0.14357470439411502 0.21059374806869563
0.2973470885281598 0.06472884099773234 -0.11462304996321127 -0.21779772223613858 0.5418244097314303 0.11512509295638941 0.26630783392245977 0.08835560604068034
0.19023055278012527 0.21812715842819008 0.22029430188292096 0.3739517735458606 0.5412586507619732 -0.08854119387111066 0.3431360870024451 0.17480610764458035
